clf.pth (torch, 2943 bytes, 5 tensors)

fc1.weight f4 [20, 2]
0	0x3f341958	0.7035117
1	0x3fe6c0a6	1.8027542
2	0x3d4b7220	0.049669385
3	0xbdd32519	-0.1030981
4	0xbfd56dc5	-1.6674124
5	0xbec7a813	-0.38995418
6	0xbff2bf6d	-1.8964669
7	0xbf265a25	-0.649813
8	0xbfd59b7c	-1.6688075
9	0x3f8b4d52	1.0882971
10	0x3f3e5437	0.7434725
11	0xbf7e6fe9	-0.9938951
12	0x3f231ade	0.6371287
13	0xbfc45cf3	-1.5340866
14	0x3f17ac0a	0.59246886
15	0xbf8131ee	-1.0093362
16	0xbfb4bf47	-1.4120873
17	0x3ed1d0ed	0.4097971
18	0x3f6277d7	0.8846411
19	0xbefac11d	-0.4897546
20	0x3f10c991	0.56557566
21	0xbfa375e9	-1.2770358
22	0xbd96ea75	-0.07368938
23	0xbe8b8951	-0.27253202
24	0x3fc4048b	1.5313886
25	0x3ee4ba62	0.4467345
26	0x3f79477b	0.97374696
27	0x3f88291a	1.0637543
28	0x3f292b4c	0.6608169
29	0xbf6c67df	-0.92345995
30	0xbf860613	-1.0470604
31	0x3f7161c5	0.9428981
32	0x3f8076a6	1.0036209
33	0x3f9df4ad	1.2340294
34	0x3f7297dd	0.94762975
35	0xbf1e01fd	-0.61721784
36	0x3f080097	0.531259
37	0xbf4e15ab	-0.8050181
38	0x3efbca3d	0.49177733
39	0xbf80b36e	-1.0054758

fc1.bias f4 [20]
0	0xbecff745	-0.4061834
1	0xbef658c9	-0.48114613
2	0xbe9f5613	-0.31120357
3	0xbf369f43	-0.71336764
4	0xbf8113c9	-1.0084163
5	0xbf24b97d	-0.6434553
6	0xbe169a68	-0.14707339
7	0xbf29a928	-0.66273737
8	0x3f6a8b45	0.9161876
9	0x3f26b04c	0.6511276
10	0xbf35b92c	-0.70985675
11	0xbf26d1db	-0.65163964
12	0xbf0682b7	-0.52543205
13	0xbf1c539c	-0.6106508
14	0xbf0b5ede	-0.5444163
15	0x3f3e37a6	0.7430366
16	0xbf3f3302	-0.74687207
17	0x3f1cfdfc	0.6132505
18	0xbf0633bb	-0.52422684
19	0xbf04b019	-0.51831204

fc2.weight f4 [10, 20]
0	0x3eb8b78a	0.3607753
1	0xbe528c1c	-0.2056126
2	0x3f02fcab	0.5116679
3	0x3e68f37e	0.22749135
4	0x3ed5c855	0.41754404
5	0x3f92c092	1.1465018
6	0x3eea213a	0.45728475
7	0x3fa765a4	1.3077893
8	0x3e154c91	0.14579989
9	0x3f0271cc	0.5095489
10	0x3f9bf607	1.2184457
11	0xbd122522	-0.035679944
12	0x3f1e9583	0.61946887
13	0x3fc2f41c	1.5230746
14	0x3fdd86aa	1.7306721
15	0xbddbd73a	-0.107344106
16	0x3fde529b	1.7368959
17	0x3ed0133c	0.40639675
18	0x3fc2115c	1.5161548
19	0x3f894c26	1.0726364
20	0xbe4c0ec2	-0.19927505
21	0xbce51843	-0.02796567
22	0xbf50e08f	-0.8159265
23	0xbf7917a2	-0.97301686
24	0xbd45f29c	-0.048327073
25	0x3f458191	0.7715083
26	0x3f3c15a4	0.7347052
27	0x3f30e8c6	0.69105184
28	0x3f478d4a	0.77949965
29	0xbe79a62f	-0.243798
30	0x3f5eac47	0.86981624
31	0xbcd5c97f	-0.026097057
32	0xbe336163	-0.17517619
33	0x3e9c05b1	0.30473092
34	0x3eaeb2ca	0.3412078
35	0xbd8f76b1	-0.070050605
36	0x3ee40a3e	0.44539064
37	0xbe8a4e6a	-0.2701295
38	0x3f95779b	1.1677126
39	0x3f6e84a0	0.9317112
40	0x3f7edd41	0.99556357
41	0xbe44312f	-0.19159387
42	0x3f71deeb	0.9448077
43	0x3f97dd0a	1.1864331
44	0x40148bf8	2.321043
45	0xbd9ad7e8	-0.07560712
46	0xbccbcebf	-0.024878858
47	0x3df45fd4	0.1193234
48	0x3ef98717	0.48735878
49	0xbd09e83e	-0.03366875
50	0xbcb956ea	-0.022624452
51	0x3e44984c	0.19198722
52	0x3edc61cb	0.4304336
53	0x3f8fab07	1.1224068
54	0xbe2db4a3	-0.16963439
55	0x3f69af06	0.9128269
56	0x3fbd61d0	1.4795475
57	0xbd1b0c61	-0.037853602
58	0xbe310433	-0.17286758
59	0x3d0312ac	0.03200023
60	0x3eec2e64	0.46129143
61	0xbdb4da43	-0.088306926
62	0x3f0b294f	0.54359907
63	0x3ef71f2f	0.4826598
64	0xbcf3d910	-0.02976659
65	0x3fa348b9	1.2756568
66	0x3ebfd945	0.3747045
67	0x3fbbe8ca	1.4680417
68	0xbd20318a	-0.039109744
69	0x3ed6d84a	0.4196189
70	0x3fad2fb1	1.3530179
71	0x3e5ec751	0.2175572
72	0x3fdc930e	1.7232378
73	0x3fd9ca70	1.7014904
74	0x3fc1c3a0	1.5137825
75	0xbeaacb05	-0.33358017
76	0x4012163a	2.2826066
77	0x3ebd6dd0	0.36997843
78	0x3feb89a3	1.8401378
79	0x3f93ceab	1.1547445
80	0xbfe40efc	-1.7817073
81	0x3cd2d293	0.025735175
82	0xc021e3df	-2.5295331
83	0xbfa33a8e	-1.2752244
84	0xbf29a79e	-0.6627139
85	0x3f05287e	0.5201491
86	0x3e73dfb6	0.23815808
87	0x3f0e86fb	0.55674714
88	0xbe5a5619	-0.21321906
89	0x3e11297d	0.14175983
90	0x3ea4574f	0.3209786
91	0x3e2c46c7	0.16823874
92	0x3ee101b6	0.43946618
93	0xbedab6de	-0.42717642
94	0x3f402228	0.7505212
95	0xbfb03cd8	-1.3768568
96	0xbec52cdd	-0.3851079
97	0x3e5b1444	0.2139445
98	0x3f7c3055	0.9851125
99	0x3f3411e8	0.7033982
100	0xbe06b142	-0.13153556
101	0xbe625ad6	-0.22104964
102	0xbe16254f	-0.1466267
103	0xbe148073	-0.14502124
104	0xbe46570a	-0.1936914
105	0xbddc59af	-0.10759293
106	0xbd0a1788	-0.033713847
107	0x3da328b6	0.07966749
108	0xbdd04253	-0.101689
109	0xbdc792e6	-0.097448155
110	0x3c88feeb	0.016723117
111	0xbd9d98f3	-0.076951884
112	0xbd21f55d	-0.039540637
113	0x3d5326f8	0.051550835
114	0xbe8dd8ee	-0.27704567
115	0xbe806250	-0.25075006
116	0xbe4e7d4a	-0.20164981
117	0xbe80115d	-0.25013247
118	0x3c12b92d	0.008955282
119	0x3c640cbe	0.013919054
120	0x3e9f146e	0.31070274
121	0x3ce47752	0.027888928
122	0xbe180acc	-0.14847869
123	0xbe8237ff	-0.25433347
124	0xbff2d26c	-1.8970466
125	0xbfb00af8	-1.3753347
126	0x3f2757a1	0.65368086
127	0xbfdc10a3	-1.7192577
128	0x3f0b1c07	0.5433964
129	0x3f31bf6f	0.6943273
130	0xbfeb52cd	-1.8384644
131	0x3e15ae91	0.14617373
132	0xbfa7ccf1	-1.3109418
133	0xbfd3474d	-1.6506134
134	0xbffafa86	-1.9607704
135	0x3c942d3e	0.01808798
136	0xc00281ba	-2.039168
137	0x3f332450	0.69977283
138	0xbffe5765	-1.9870421
139	0xbf830df2	-1.0238631
140	0xbfbc7e66	-1.4726074
141	0xbc153411	-0.009106652
142	0xc00b66f9	-2.17816
143	0xbfba0481	-1.4532624
144	0xbea52d6f	-0.32261226
145	0x3f37e0f0	0.718276
146	0xbcd8344e	-0.026392128
147	0x3ed2ddd8	0.41184878
148	0xbfebb36f	-1.8414134
149	0x3d762936	0.060097896
150	0x3f1f2882	0.62171185
151	0xbdf811fb	-0.121128045
152	0x3e9db0c3	0.3079892
153	0xbeafb8b4	-0.34320605
154	0x3f00253a	0.50056803
155	0xbfcdb2e6	-1.607022
156	0xbece29ba	-0.4026621
157	0x3ee5b0d5	0.44861475
158	0x3f25c277	0.64749855
159	0x3f01c4dd	0.50691015
160	0xbfee1ba4	-1.8602185
161	0xbd9be386	-0.07611756
162	0xc020b959	-2.5113127
163	0xbfaa5100	-1.3305969
164	0xbeed9ad0	-0.46407175
165	0x3f66c139	0.90138584
166	0x3d560d71	0.052258912
167	0x3f411b8c	0.7543266
168	0x3ee1ad95	0.44077745
169	0xbd84d205	-0.064853705
170	0x3f4d4b34	0.80192876
171	0x3e0a1660	0.13485098
172	0x3e8e0be1	0.27743438
173	0xbeb50f04	-0.3536302
174	0x3f532e50	0.8249254
175	0xbf00b337	-0.5027346
176	0xbebe8125	-0.37207904
177	0x3dc38cc3	0.095483325
178	0x3f5e3dac	0.86812854
179	0x3f917ced	1.1366249
180	0xbfd9d378	-1.701766
181	0xbe0ae74b	-0.13564794
182	0xc01934fe	-2.3938594
183	0xbfb6048c	-1.4220138
184	0xbf72c50c	-0.9483192
185	0x3f3ae36c	0.7300327
186	0x3e73e1ff	0.2381668
187	0x3f0d7bc3	0.5526697
188	0xc01a90f0	-2.4150963
189	0x3e4bd8e2	0.19906953
190	0x3f21aeb9	0.6315723
191	0xbe25394a	-0.16135135
192	0x3f055dc4	0.520962
193	0xbe0b2f7b	-0.13592331
194	0x3f25d0df	0.64771837
195	0xc00075ca	-2.0071893
196	0xbf098e31	-0.5373259
197	0xbed14e1e	-0.4087991
198	0x3f62a016	0.8852552
199	0x3f028cc0	0.5099602

fc2.bias f4 [10]
0	0xbef7bc5b	-0.4838589
1	0xbfbca9e2	-1.4739344
2	0x3eca99c6	0.39570445
3	0x3e15ac9c	0.14616627
4	0xbd9fbec8	-0.078000605
5	0xbe92b866	-0.2865631
6	0x3fe59916	1.7937343
7	0xbf55d97c	-0.8353498
8	0xbd538213	-0.05163772
9	0x3c34cdda	0.011035407

output.weight f4 [3, 10]
0	0xbff744d0	-1.9317875
1	0xc01c9a11	-2.4469035
2	0xbe23cff1	-0.15997292
3	0xc000948a	-2.009066
4	0xbf8203f2	-1.0157454
5	0xbcf9cbe5	-0.030492732
6	0x3fd35218	1.6509428
7	0xbf74a6d1	-0.9556704
8	0xbf9ccd62	-1.2250178
9	0xbf8d9a34	-1.1062684
10	0x3f25a56c	0.6470554
11	0x3fc6a871	1.5520154
12	0x3f9f5d27	1.2450303
13	0x3f7cd733	0.9876587
14	0xbf62b1d8	-0.8855262
15	0xbdf41ca7	-0.119195275
16	0xbf91c817	-1.1389188
17	0xbf0c7493	-0.5486538
18	0xbe5318c2	-0.20614913
19	0xbf9c5b6b	-1.2215399
20	0x3ecfdddf	0.40598962
21	0x3f937774	1.1520829
22	0xc00468fb	-2.0689075
23	0x3f055b1f	0.52092165
24	0x3fa1c622	1.263859
25	0xbdab5867	-0.08366471
26	0xbf7a0ab8	-0.97672606
27	0x3fae4ea0	1.3617744
28	0x3f54b986	0.83095586
29	0x3fb25e83	1.3935093
