clf.pth (torch, 3191 bytes, 6 tensors)

fc1.weight f4 [20, 2]
00000000: 3e92 88bf 00c6 f03e 823a ab3f 2fcc 84bf
00000010: 8855 1bbf 1707 ae3f 6646 363f 720a 0b40
00000020: 93ef 99bf c273 59bf 5bb7 a0bf 699d 553f
00000030: 73ec 4b3f dac6 ed3f 3c32 86bf 2ae2 c53f
00000040: cbae 003f 62b5 98bf 5ed3 9dbf 8036 53bf
00000050: 1d99 033f 971f 87bf 6f02 96bf 3b74 62bf
00000060: ec81 913f 36f9 59bf 8b0a 3bbf a39a 333f
00000070: 236b 53bf 1759 513f 0841 01bf e32c 783f
00000080: 4769 93bf ccfa 3f3f a84b c03f e4b4 1239
00000090: 6320 f43e 044c 8dbf 7fe2 0e3f 4b60 98bf
-1.066963 0.47026062 1.337723 -1.0374812 -0.60677385 1.3595914 0.7120117 2.1725125
-1.2026237 -0.8494226 -1.2555956 0.83443314 0.7965767 1.857631 -1.048408 1.5459645
0.5026671 -1.1930354 -1.2330129 -0.82505035 0.5140551 -1.0556515 -1.1719493 -0.88458604
1.1367774 -0.8514589 -0.7306296 0.7015783 -0.8258535 0.81776565 -0.50489855 0.9694349
-1.1516503 0.7499206 1.5023088 0.00013991032 0.4768096 -1.1038823 0.55814356 -1.1904386

fc1.bias f4 [20]
00000000: bfc0 f73e 9269 03bf aa4a 00bf aa38 e5be
00000010: 0b30 5fbf 704b 193f 2ae8 01bf 79da 083f
00000020: 4a6f fd3e 6ba4 63bf 8cb5 f93e e194 4dbf
00000030: 787f eabe 84a1 323f aa99 553f 5b7b 073f
00000040: 9000 1e3f 36b4 46bf 6f5a f63e 537f 0c3f
0.4838924 -0.5133296 -0.5011393 -0.44769794 -0.8718268 0.59880733 -0.5074488 0.5345836
0.4949897 -0.88922757 0.48771322 -0.80305296 -0.45800376 0.69777703 0.834376 0.529226
0.6171961 -0.7761873 0.4811587 0.5488178

fc2.weight f4 [10, 20]
00000000: 405a 3ebc c092 0f3e 2599 08c0 1dfd 07be
00000010: ed0e 15c0 3da2 263e 8c79 16be e135 3dbe
00000020: 0b23 de3d 8f44 bebf e956 fc3d 48f8 22bf
00000030: 0a2f ae3c 7888 fc3d 13ca e23d 1b49 1d3c
00000040: e227 083d 639d bd3d 6587 bb3d 6f51 a03e
00000050: 578f 723e 2828 0f40 e2b0 da3f 0dbf a33e
00000060: c43e 2040 d8b4 723e 9131 843d a958 9ebf
00000070: f667 e73e d28e 1e40 b3aa a13e e775 0040
00000080: 16e4 0b40 056c f63d 4f2a 013e d77e 3b3e
00000090: 3d6d 323e e5d6 e93f b48b 663e 5d09 8c3e
000000a0: cf7c 103f 6021 f6bf 37c5 0cc0 66b4 eebd
000000b0: 335f e8bf a04c 003f 5d3a 853e 8548 97be
000000c0: d3c2 b53e ab8d c9bf d138 e83e aa9d cbbf
000000d0: b3e7 1bc0 4b26 073f d2f8 f03e 412f fc3e
000000e0: c907 233f 31a1 19c0 b491 fa3e 0e4f ac3e
000000f0: 1a19 813e 2619 c83d 9831 0640 25d2 f9bd
00000100: cef9 dc3f d360 c33e d8fb 3a3e d29b b83e
00000110: 14d0 50c0 ed5f c13f 234e 50c0 f7eb 0040
00000120: d54a 193e 9507 b93e c8fd a83e e071 a13e
00000130: aec0 a13e 307b 9a3f d332 38c0 1244 31c0
00000140: c155 943f 418f c8bd df9d 0440 ed27 1940
00000150: 964e ef3f bc0b 9e3f 6465 1940 5e47 1c3f
00000160: d1af e13d 7c18 833f 6d61 6e3e cb30 a53e
00000170: a9c5 d0bd 73da f93e 34ad b23e 7429 0940
00000180: 4895 923f b2fd efbc dde3 363e 0b30 203e
00000190: 50cb ba3f 4dcf f6bd 2adc 0640 e0f5 2040
000001a0: 12c6 fb3f ac8a b83f 3ead 1b40 4565 253f
000001b0: d293 913d 85d1 763f 0b86 2d3e 795b 983e
000001c0: d29b 12be 9194 043f b760 ef3e 8837 1440
000001d0: 8de4 a33f c79b 9dbd 2d56 b23d 36a3 493d
000001e0: e14b e53d 01e4 cdbf 6e39 13c0 267f 1abe
000001f0: fbba 1ec0 5df1 703e b112 fbbc b342 5abe
00000200: 6926 873e e1e2 1dc0 f4e2 763e 8ec4 01c0
00000210: 5ac4 25c0 0f1d 5f3e 5d9e 673e b148 2c3e
00000220: 4196 273e 85fb 40bf 38fa 603e ae38 6e3e
00000230: b811 0d3f 37e1 36bc 9aeb f13f e251 993f
00000240: 7e1b 1c40 f663 ae3e c89f 9f3f 5cd7 3a3f
00000250: 9b03 3e3c ed42 c33f adc4 9d3d 3762 243f
00000260: 20fc 80ba 968e 973e 948b 943e 738e db3e
00000270: c53b 363e 40d2 d63c a399 fd3c 7769 f43c
00000280: 2f56 07c0 3571 cb3e 0ec9 0bc0 2795 19c0
00000290: f6ee e9bf ffa9 99c0 dede bfbf c603 67c0
000002a0: 3fdf 0c3e cc10 46bf 09d8 963e df57 123e
000002b0: 6df6 113f ea8d a6bf d216 96bf cfd6 33c0
000002c0: 1018 0bc0 f933 113f 4709 2d3e 072a 80bd
000002d0: ffdd 66bf 7c75 933f 181f 3ebe 17dc 4bbf
000002e0: 237c 4dbd 1831 1cc0 badd 7a3f 1285 68bf
000002f0: 0e47 b63e 8ab2 28bd 2c61 b93e 6fb9 9cbe
00000300: a1f8 6e3f 0617 7b3d 3512 d33d 8218 dabe
00000310: c2b6 a1bf 894a 663f b3fc 0a3f d546 ce3e
-0.011618197 0.14020824 -2.1343472 -0.13280149 -2.329036 0.16272826 -0.14694804 -0.18477584
0.10846528 -1.4864672 0.12321264 -0.636601 0.021262664 0.12330717 0.11073699 0.009599949
0.03324116 0.09258535 0.09156684 0.3131213 0.23687492 2.236826 1.708523 0.31981698
2.503831 0.23701799 0.064547665 -1.2370807 0.45196503 2.477467 0.31575546 2.0071962
2.1857963 0.12032322 0.12613796 0.18310104 0.17424484 1.8268706 0.2251423 0.27350894
0.5644044 -1.9228935 -2.199537 -0.11655502 -1.8154052 0.5011692 0.2602109 -0.29547516
0.35500202 -1.5746359 0.45355847 -1.590749 -2.4360168 0.52792805 0.47064835 0.49254802
0.63683754 -2.4004633 0.48939288 0.33654064 0.25214463 0.09770422 2.096777 -0.12198285
1.7263734 0.3815981 0.18260133 0.3605638 -3.2627 1.5107399 -3.254769 2.0144022
0.14969952 0.36138597 0.3300612 0.31532192 0.31592315 1.2068844 -2.878102 -2.7697797
1.158867 -0.097929485 2.0721357 2.3930619 1.8695858 1.2347331 2.3968134 0.610464
0.110198624 1.0241847 0.23279352 0.3226379 -0.10193951 0.48799476 0.34897768 2.143155
1.1451807 -0.029295776 0.1786036 0.15643327 1.4593296 -0.12051258 2.1071877 2.515007
1.9669821 1.4417319 2.4324489 0.6460765 0.071082726 0.9641345 0.16945665 0.29757288
-0.14317253 0.51789194 0.46753475 2.3158894 1.2804123 -0.07695728 0.08707843 0.049227916
0.111961134 -1.6085206 -2.3003802 -0.15087566 -2.4801624 0.23529573 -0.030648561 -0.21314506
0.26396492 -2.4669726 0.24110013 -2.0276217 -2.5901093 0.21788429 0.22619005 0.16824605
0.16365911 -0.7538379 0.21970451 0.23263809 0.5510516 -0.011162094 1.8900025 1.1978114
2.439178 0.3406064 1.2470636 0.7298486 0.011597539 1.5254799 0.077035286 0.64212364
-0.0009840764 0.29600972 0.2901274 0.42882118 0.17796238 0.026223302 0.030957049 0.029835446
-2.1146352 0.39734808 -2.1841464 -2.3997285 -1.827605 -4.8020015 -1.4989889 -3.6096053
0.13757037 -0.7736938 0.29461697 0.14291333 0.5701664 -1.3012059 -1.1725714 -2.8099859
-2.1733437 0.5671993 0.1689807 -0.06258016 -0.9018249 1.1520228 -0.18566549 -0.79632705
-0.050167214 -2.4404964 0.9799458 -0.9082805 0.35601085 -0.041185893 0.3620695 -0.30610225
0.9334813 0.061301254 0.10306207 -0.42596823 -1.2633898 0.8995748 0.5429184 0.40288416

fc2.bias f4 [10]
00000000: f40d 4e3f 4d6d d43e 0ba0 653f 4cea 82be
00000010: 4325 183e bf1c 983e c63b 673f 0e6e ac3c
00000020: 9eb5 f63e 8472 593f
0.8049004 0.4148964 0.8969733 -0.2556938 0.14857964 0.29709432 0.9032558 0.021048572
0.48185438 0.8494036

output.weight f4 [3, 10]
00000000: 216e 853c 6bc6 0ec0 0163 6e3f a8ea 07c0
00000010: a00b d43e 1dd0 d93e f697 7f3f a5f7 ba3d
00000020: 996b d2bf e421 d8bf 3b37 05bf 0a0d 883f
00000030: 9b4f febe f6ae d43f 99cc d83e 1933 d23e
00000040: e223 c3bf 4363 013f c0f8 3dbf eed8 8ebd
00000050: 59a9 c83e df80 b23e 3325 48bf 29fe a23f
00000060: 1867 f0bf 51fc eebf 77f8 b1bc 6c24 b1bf
00000070: 3a2f e83f 29f4 573f
0.016287865 -2.2308605 0.9311982 -2.1236973 0.4141512 0.4254159 0.9984125 0.09129266
-1.6439086 -1.6885343 -0.520374 1.0628979 -0.4967011 1.6615894 0.42343596 0.4105461
-1.5245326 0.50542086 -0.7420769 -0.0697497 0.39191702 0.34863946 -0.7818176 1.2733814
-1.8781462 -1.8670751 -0.021724923 -1.383924 1.8139412 0.84356934

output.bias f4 [3]
00000000: 960a f83e 9d93 83be 06f6 253e
0.48445576 -0.25698557 0.16207132
